…
ataset via `dataset.with_options(options)`.
2024-04-14 15:04:45.168726: I tensorflow/compiler/mlir/mlir_graph_optimization_pass.cc:185] None of the MLIR Optimization Passes are enabled (registered 2)
2024-04-14 15:04:47.787749: I tensorflow/stream_executor/cuda/cuda_dnn.cc:369] Loaded cuDNN version 8907
2.6.2 2.6.0
Doing training
Creating a new model
Model: "sequential"
_________________________________________________________________
Layer (type)                 Output Shape              Param #   
=================================================================
conv2d (Conv2D)              (None, 32, 32, 32)        896       
_________________________________________________________________
conv2d_1 (Conv2D)            (None, 32, 32, 32)        9248      
_________________________________________________________________
max_pooling2d (MaxPooling2D) (None, 16, 16, 32)        0         
_________________________________________________________________
conv2d_2 (Conv2D)            (None, 16, 16, 64)        18496     
_________________________________________________________________
conv2d_3 (Conv2D)            (None, 16, 16, 64)        36928     
_________________________________________________________________
max_pooling2d_1 (MaxPooling2 (None, 8, 8, 64)          0         
_________________________________________________________________
flatten (Flatten)            (None, 4096)              0         
_________________________________________________________________
dense (Dense)                (None, 128)               524416    
_________________________________________________________________
dense_1 (Dense)              (None, 10)                1290      
=================================================================
Total params: 591,274
Trainable params: 591,274
Non-trainable params: 0
_________________________________________________________________
Epoch 1/15
1563/1563 - 8s - loss: 1.3748 - sparse_categorical_accuracy: 0.5005
Epoch 2/15
1563/1563 - 5s - loss: 0.8835 - sparse_categorical_accuracy: 0.6884
Epoch 3/15
1563/1563 - 5s - loss: 0.7118 - sparse_categorical_accuracy: 0.7525
…
